Week 7/mnist_cnn.pt (torch, 89871 bytes, 8 tensors)

conv1.weight f4 [10, 1, 5, 5]
-0.1200012 -0.047524877 0.020446554 0.24088888 -0.012619097 -0.1782185 -0.12525883 -0.09481004
0.17725633 0.16451544 -0.36703774 -0.14373344 0.140743 0.35009617 -0.0674736 -0.1883128
0.016071726 0.3222151 0.11236863 -0.0033458371 0.10479838 0.11879953 -0.057835776 0.07443635
-0.20456405 0.17628264 0.22250709 -0.02314675 0.16834174 0.25758305 0.43235722 0.09632767
0.25596765 0.22834377 -0.022514421 -0.12255208 0.083021514 0.15414855 -0.1898917 0.064459756
-0.13940986 -0.27217942 -0.37907705 -0.142733 -0.25190374 -0.4534329 -0.26581103 -0.21974903
-0.1614631 -0.016781336 -0.040007893 -0.126815 -0.20581964 -0.30113623 -0.26675263 0.035164732
0.030382581 -0.14785811 -9.5986376e-05 0.087718174 0.124266006 0.35050374 0.4884161 0.43480897
0.22725372 -0.3176954 0.11722266 0.16995321 0.0956832 0.08101373 -0.42363775 -0.49727634
-0.49406496 -0.36499843 -0.33160192 0.08407779 0.057800192 -0.22483705 -0.33131674 -0.30192536
-0.17703101 -0.1686791 -0.18036143 -0.2802787 0.058962304 0.2144688 -0.050355718 -0.15489288
0.30456832 0.19275416 0.18999311 -0.028653564 0.2193142 0.289584 0.28686547 0.025416644
0.33877677 0.03842457 0.021854823 -0.1334847 -0.028310224 -0.041750375 -0.38920146 -0.25445572
-0.25984362 -0.08270915 -0.32555574 -0.19743495 -0.15847513 0.084783435 -0.25674102 -0.25979555
-0.29104412 -0.027340481 0.4177221 -0.23553558 -0.28066534 -0.099961 0.05519903 0.49984017
-0.24214487 -0.24120122 -0.11805948 0.17608579 0.34341472 0.09804012 0.14080597 0.06960139
0.3489365 0.049109958 -0.13009101 0.04466095 -0.048575692 0.113510765 0.2615688 -0.00023753816
0.123653665 -0.18812 -0.0058553866 0.14630368 0.056236453 -0.033363678 -0.119081154 0.044319164
0.34797746 -0.28576955 -0.09377164 -0.17765403 0.050222456 0.06076801 -0.02561053 0.19546089
0.23321061 0.06504937 -0.4990121 -0.23246324 -0.25078043 0.10924163 0.5685283 0.33330056
-0.15768287 -0.08002529 -0.20400678 0.013757079 0.39614412 0.08172517 -0.04984594 -0.30439276
-0.12815556 0.2732958 -0.014483026 -0.10768403 -0.28355643 -0.3163438 -0.10746829 -0.099804394
0.022684665 0.025121197 -0.27027532 -0.23143665 0.35806087 -0.055476356 -0.16742885 -0.17861494
-0.0878463 0.35208526 -0.011824173 -0.13931704 -0.22022255 0.074429624 0.10657447 0.26601663
-0.21558513 -0.28407055 0.08948329 0.053359743 0.3353172 0.06310489 -0.20453206 0.11383693
-0.21076812 -0.24904539 -0.17406622 -0.06987033 0.24797411 -0.3837683 -0.36899874 -0.52428794
-0.37620255 -0.3149589 0.28911006 -0.055688787 -0.19188283 -0.3149851 -0.32478204 0.13907036
0.22088176 0.2777278 -0.023820471 -0.31808865 0.11954684 0.09430438 0.13898012 0.34261295
0.22357044 -0.26831883 -0.1451054 0.08670598 -0.12128022 0.087139316 -0.03549656 -0.11145669
0.04167057 0.05222346 -0.10929898 -0.13968028 -0.21790422 -0.09440461 -0.008298322 -0.16468905
-0.20714824 0.017362965 -0.003400896 -0.113127075 -0.19048531 -0.1410306 -0.14150797 -0.24392842
-0.16044642 -0.015888035
00000000: 30c3 f5bd 72a9 42bd 887f a73c 93ab 763e
00000010: 54c0 4ebc e97e 36be da43 00be c42b c2bd
00000020: af82 353e bc76 283e 5fec bbbe dc2e 13be
00000030: ef1e 103e ce3f b33e 992f 8abd 12d5 40be
00000040: daa8 833c 61f9 a43e 8621 e63d d545 5bbb
00000050: 88a0 d63d 2b4d f33d 35e5 6cbd 1672 983d
00000060: 3d79 51be 7083 343e e6d8 633e 419e bdbc
00000070: c761 2c3e ede1 833e ed5d dd3e 7147 c53d
00000080: 310e 833e f3d2 693e 2a70 b8bc 96fc fabd
00000090: 2f07 aa3d 1ed9 1d3e f872 42be 7a03 843d
000000a0: 75c1 0ebe 1a5b 8bbe 6316 c2be 9928 12be
000000b0: 87f9 80be 5b28 e8be 6218 88be e405 61be
000000c0: 9556 25be 0379 89bc 51df 23bd cbdb 01be
000000d0: 62c2 52be 872e 9abe cd93 88be e508 103d
000000e0: e4e4 f83c 1e68 17be 4b4c c9b8 96a5 b33d
000000f0: 2d7f fe3d 3a75 b33e ad11 fa3e 489f de3e
00000100: 33b5 683e f9a8 a2be 6f12 f03d 3708 2e3e
00000110: 8ef5 c33d 87ea a53d 0ce7 d8be 019b febe
00000120: 15f6 fcbe 13e1 babe bac7 a9be fa30 ac3d
00000130: e5bf 6c3d af3b 66be 59a2 a9be f695 9abe
00000140: 9e47 35be 37ba 2cbe abb0 38be b180 8fbe
00000150: 7582 713d b69d 5b3e cc41 4ebd 3d9c 1ebe
00000160: 61f0 9b3e 5961 453e 8e8d 423e e1ba eabc
00000170: e793 603e 5b44 943e 08e0 923e 9136 d03c
00000180: 2674 ad3e 1563 1d3d e308 b33c 37b0 08be
00000190: d8ea e7bc 7102 2bbd 6a45 c7be 0548 82be
000001a0: 390a 85be 6a63 a9bd 3eaf a6be 632c 4abe
000001b0: 4e47 22be f0a2 ad3d 8f73 83be ec03 85be
000001c0: bc03 95be 25f9 dfbc acdf d53e 3d30 71be
000001d0: 5eb3 8fbe 5ab8 ccbd 6118 623d 0deb ff3e
000001e0: d3f4 77be 74fd 76be 2bc9 f1bd d54f 343e
000001f0: 0ed4 af3e 42c9 c83d 712f 103e 2c8b 8e3d
00000200: cea7 b23e 8627 493d 9436 05be 66ee 363d
00000210: 4ef7 46bd 5578 e83d 59ec 853e aa13 79b9
00000220: 223e fd3d 87a2 40be 8bde bfbb a2d0 153e
00000230: 3258 663d 5aa8 08bd d2e0 f3bd 0388 353d
00000240: 1a2a b23e 6350 92be 580b c0bd f0ea 35be
00000250: 10b6 4d3d e0e7 783d 2dcd d1bc e626 483e
00000260: c3ce 6e3e 9b38 853d 847e ffbe d80a 6ebe
00000270: 4b66 80be 13ba df3d 128b 113f 5fa6 aa3e
00000280: 9e77 21be 4de4 a3bd 27e7 50be 5f65 613c
00000290: 67d3 ca3e 875f a73d 422b 4cbd 5ed9 9bbe
000002a0: 363b 03be 6ded 8b3e 374a 6dbc 7289 dcbd
000002b0: 4f2e 91be d1f7 a1be 5618 dcbd 3f66 ccbd
000002c0: 31d5 b93c f8ca cd3c 8761 8abe bbfd 6cbe
000002d0: c153 b73e 2d3b 63bd 7872 2bbe d6e6 36be
000002e0: c3e8 b3bd 8544 b43e 2dba 41bc 20a9 0ebe
000002f0: 0582 61be 8f6e 983d b743 da3d 5533 883e
00000300: 59c2 5cbe b271 91be 0443 b73d bf8f 5a3d
00000310: b2ae ab3e 233d 813d da70 51be 5623 e93d
00000320: 99d3 57be c105 7fbe 6a3e 32be 2d18 8fbd
00000330: edec 7d3e 477d c4be 67ed bcbe bc37 06bf
00000340: 9f9d c0be 4b42 a1be 3c06 943e ed19 64bd
00000350: ef7c 44be ba45 a1be d549 a6be 7668 0e3e
00000360: d42e 623e 5732 8e3e 2623 c3bc 84dc a2be
00000370: f9d4 f43d a822 c13d ce50 0e3e f76a af3e
00000380: a6ef 643e 1661 89be 8396 14be e892 b13d
00000390: c461 f8bd 1976 b23d d764 11bd 6843 e4bd
000003a0: c2ae 2a3d 44e8 553d 25d8 dfbd 5908 0fbe
000003b0: 4922 5fbe 3457 c1bd aff5 07bc 3fa4 28be
000003c0: ab1e 54be c73c 8e3c 91e1 5ebb 2baf e7bd
000003d0: 950e 43be 536a 10be 77e7 10be 5fc8 79be
000003e0: 114c 24be a027 82bc

conv1.bias f4 [10]
-0.18386063 -0.22702034 -0.17057739 -0.015063025 -0.13297357 -0.026243348 -0.09664315 -0.12186626
-0.15669283 0.18446927
00000000: f645 3cbe 0578 68be d7ab 2ebe e8ca 76bc
00000010: 392a 08be 4afc d6bc d8ec c5bd 0595 f9bd
00000020: 1674 20be 83e5 3c3e

conv2.weight f4 [20, 10, 5, 5]
-0.03171298 0.01307333 -0.026778203 0.08704266 0.049797807 -0.036626045 -0.009696225 -0.071465895
0.00046146425 0.06117202 -0.027658746 -0.05551436 0.0026278312 0.07599488 -0.031475067 -0.06037036
-0.05802019 0.005693593 -0.008075881 -0.027129967 0.1145511 -0.033987455 -0.12299312 0.003918906
-0.050335526 -0.09856773 -0.08154777 -0.07086106 -0.029569611 -0.020287905 -0.01833051 0.11277301
0.07516396 0.043174595 0.00036274578 0.043637734 -0.03904612 0.005923516 -0.05104393 0.049872376
0.046406496 -0.07406206 0.008548784 0.05003987 0.047258507 0.00995367 0.010115336 -0.0031865265
-0.03211556 -0.06637683 0.03914507 0.00453804 0.15049504 0.025423605 0.040829256 0.004253366
0.003257423 0.03511272 0.040360563 0.03665856 0.05085431 0.10490525 0.0865414 0.057513442
0.0658392 -0.0074192984 -0.05720185 -0.02290869 0.077585354 0.016173352 0.019610072 -0.051892124
-0.042715505 -0.04131933 0.12378829 -0.087378584 0.0009692377 0.12743343 0.038927425 0.07219155
-0.04577765 0.10750432 0.06386779 0.07076261 0.05845219 -0.08892951 -0.037037086 -0.029856727
-0.0034467482 -0.048938774 -0.12271409 -0.19877201 -0.18116187 -0.08522552 -0.02791763 0.0025518143
-0.020513294 -0.123425804 0.02913257 0.11574008 -0.06419351 -0.049090344 -0.13801269 -0.089124545
0.038865883 -0.08828391 -0.07006621 -0.017317988 -0.08083043 0.048412498 0.05919593 0.012920934
0.06141758 0.07880283 0.02003648 -0.072233655 -0.021443402 0.01372928 0.048386604 -0.054839086
0.18969695 0.053347852 -0.09489327 -0.055461626 -0.11869329 0.026412902 -0.057361387 -0.10739348
0.0014290926 -0.15675573 0.09966097 0.0924369 0.09284594 0.07858148 -0.054467466 -0.06318163
-0.009245816 0.13015018 0.09542841 -0.033474933 -0.0063044056 -0.10755083 0.030462561 0.03439621
-0.04530506 -0.054676745 -0.023680301 -0.06167974 -0.01996467 -0.05041059 0.042561527 0.056498278
-0.010904528 -0.07241529 -0.08260499 0.066903286 0.025054796 0.07849899 0.031791624 -0.06664045
0.072125934 0.073081486 -0.037474442 -0.09209926 -0.10136104 0.06758407 -0.03390661 0.03192923
0.0019365054 -0.01587912 -0.051037937 -0.0019574661 -0.00822496 0.055205133 0.09549094 0.018283326
0.08062935 0.028324774 -0.08690425 0.01791087 0.04136369 0.064053565 -0.10356588 -0.071539834
-0.046714257 -0.105140224 0.018506894 0.0031349433 0.039476953 -0.010569576 -0.05644873 -0.031013677
0.0073771584 -0.021624902 -0.012946856 -0.018879045 0.042653706 0.058107875 -0.08295399 -0.10411356
-0.08584228 0.07266261 -0.036925655 -0.08964613 -0.0018896604 -0.035335436 0.009104078 0.00721947
0.048082385 -0.1457508 -0.04732844 -0.03001122 -0.104060575 -0.1003515 -0.117890015 0.090930745
-0.030868912 -0.17822067 -0.08441101 -0.05015433 0.16334012 0.2024102 0.1522374 0.10047129
-0.068123266 0.00841991 -0.017107286 0.0075797155 -0.02876455 0.034646664 0.033097837 0.009638056
-0.014767657 0.009655321 -0.0050850566 0.034198247 0.051919002 0.010593232 -0.03297369 0.006666658
-0.037291806 0.0036308928 0.0741551 -0.023853928 -0.049270984 -0.055764157 -0.050691016 0.0668096
0.058549333 0.05851979 0.023349047 0.029857593 0.03508361 -0.010247534 -0.04508066 -0.01626746
00000000: 78e5 01bd 8531 563c f65d dbbc 6c43 b23d
00000010: c9f8 4b3d 3105 16bd eadc 1ebc b65c 92bd
00000020: aff0 f139 838f 7a3d 9894 e2bc 0763 63bd
00000030: b137 2c3b 34a3 9b3d 00ec 00bd e946 77bd
00000040: 94a6 6dbd 5291 ba3b b350 04bc aa3f debc
00000050: c499 ea3d 6e36 0bbd d1e3 fbbd 2b6a 803b
00000060: a02c 4ebd e1dd c9bd 8402 a7bd 9a1f 91bd
00000070: f83b f2bc d232 a6bc de29 96bc 89f5 e63d
00000080: 90ef 993d d8d7 303d ea2e be39 7bbd 323d
00000090: d3ee 1fbd 0e1a c23b 7113 51bd fa46 4c3d
000000a0: bd14 3e3d d9ad 97bd 3310 0c3c 9bf6 4c3d
000000b0: 2392 413d b814 233c cbba 253c 0bd5 50bb
000000c0: 9b8b 03bd 93f0 87bd 9556 203d d7b3 943b
000000d0: 5f1b 1a3e 2a45 d03c 943c 273d d25f 8b3b
000000e0: 7d7a 553b 5bd2 0f3d 1e51 253d 4927 163d
000000f0: 9c4c 503d 90d8 d63d 9e3c b13d 3793 6b3d
00000100: b4d6 863d 961d f3bb 7d4c 6abd 01ab bbbc
00000110: 12e5 9e3d fa7d 843c 4da5 a03c d68c 54bd
00000120: 74f6 2ebd 753e 29bd b784 fd3d 8bf3 b2bd
00000130: 7114 7e3a e97d 023e 5d72 1f3d 2ad9 933d
00000140: 5881 3bbd 3a2b dc3d 1ecd 823d fdeb 903d
00000150: 906b 6f3d ad20 b6bd 33b4 17bd 1896 f4bc
00000160: d7e2 61bb 0674 48bd 8651 fbbd e48a 4bbe
00000170: 7f82 39be b88a aebd 83b3 e4bc 573c 273b
00000180: 7f0b a8bc abc6 fcbd 6da7 ee3c 2309 ed3d
00000190: e377 83bd f512 49bd 3353 0dbe ee86 b6bd
000001a0: d531 1f3d 32ce b4bd e07e 8fbd 74de 8dbc
000001b0: 6d8a a5bd 2f4c 463d 6e77 723d 53b2 533c
000001c0: 0091 7b3d 6163 a13d 8b23 a43c 3def 93bd
000001d0: 13aa afbc c6f0 603c 0831 463d f39e 60bd
000001e0: eb3f 423e 4783 5a3d 6757 c2bd bb2b 63bd
000001f0: 7815 f3bd df5f d83c c6f3 6abd 1df1 dbbd
00000200: 6450 bb3a 9384 20be 0d1b cc3d 8f4f bd3d
00000210: 0326 be3d 54ef a03d 4719 5fbd 5f65 81bd
00000220: c37b 17bc 1746 053e f86f c33d 031d 09bd
00000230: 3095 cebb 9c43 dcbd 9f8c f93c 0ae3 0c3d
00000240: cc91 39bd b9f4 5fbd 31fd c1bc e5a3 7cbd
00000250: f38c a3bc 567b 4ebd ff54 2e3d bd6a 673d
00000260: e8a8 32bc 784e 94bd ce2c a9bd 9704 893d
00000270: b73f cd3c 14c4 a03d ef37 023d ca7a 88bd
00000280: c3b6 933d bfab 953d cd7e 19bd 899e bcbd
00000290: 6096 cfbd 8469 8a3d a8e1 0abd 39c8 023d
000002a0: 57d2 fd3a ee14 82bc 280d 51bd d548 00bb
000002b0: fcc1 06bc c71e 623d c190 c33d eac6 953c
000002c0: 0021 a53d 5b09 e83c dbfa b1bd d1b9 923c
000002d0: f96c 293d 842e 833d 591a d4bd 7a83 92bd
000002e0: 7357 3fbd c253 d7bd c59b 973c 9f73 4d3b
000002f0: 96b2 213d 042c 2dbc c936 67bd 6510 febc
00000300: 17bc f13b b526 b1bc 0d1f 54bc 3aa8 9abc
00000310: a7b5 2e3d 8602 6e3d c8e3 a9bd 7d39 d5bd
00000320: 14ce afbd 22d0 943d 5b3f 17bd 6498 b7bd
00000330: 7bae f7ba e4bb 10bd 4529 153c 4e91 ec3b
00000340: 09f2 443d b33f 15be 77db 41bd 17da f5bc
00000350: b61d d5bd 1685 cdbd 5270 f1bd e639 ba3d
00000360: cde0 fcbc 7b7f 36be aedf acbd a06e 4dbd
00000370: a242 273e 9f44 4f3e 1fe4 1b3e e4c3 cd3d
00000380: 3684 8bbd aaf3 093c 9424 8cbc 435f f83b
00000390: a2a3 ebbc a9e9 0d3d 9991 073d f0e8 1d3c
000003a0: 0bf4 71bc 5a31 1e3c 8ca0 a6bb 7613 0c3d
000003b0: 05a9 543d 3c8f 2d3c 6c0f 07bd fb73 da3b
000003c0: 4bbf 18bd 46f4 6d3b a1de 973d 5069 c3bc
000003d0: 5fd0 49bd f568 64bd 62a1 4fbd 79d3 883d
000003e0: 6dd1 6f3d 73b2 6f3d 8046 bf3c e997 f43c
000003f0: d5b3 0f3d 46e5 27bc 80a6 38bd 5643 85bc

conv2.bias f4 [20]
0.057547983 0.046578538 0.028469479 -0.07359186 0.04050654 0.056997493 0.071368575 -0.021100061
0.046686992 0.03205739 0.011536822 -0.006168092 0.06411785 0.005823519 0.03263309 0.013021731
0.051672872 -0.061946735 0.020179965 -0.040761597
00000000: 6fb7 6b3d 23c9 3e3d d338 e93c 54b7 96bd
00000010: 30ea 253d 3476 693d b029 923d 09da acbc
00000020: dc3a 3f3d 9c4e 033d f004 3d3c b51d cabb
00000030: 3850 833d 38d3 be3b 46aa 053d 1959 553c
00000040: efa6 533d dcbb 7dbd 7450 a53c a2f5 26bd

fc1.weight f4 [50, 320]
0.024856422 0.09194243 0.0018153682 -0.14632408 0.06842203 -0.045543615 -0.11040899 -0.062032964
-0.03835984 0.058212742 -0.028294878 0.03654881 0.061701857 0.0031030565 -0.04938885 0.024003254
0.09216284 -0.0047801165 -0.0051274872 -0.059847154 0.015076935 -0.0010012883 -0.01742615 0.009277995
0.0006587684 0.009966044 -0.03511124 0.014659589 0.03260187 -0.0046881232 -0.002641633 0.081921265
0.05024042 -0.034285583 -0.05843736 0.0059642633 0.053295936 -0.053374957 -0.031334914 -0.033233136
-0.05171405 -0.041461725 0.048370562 0.08479199 -0.021029353 -0.008811676 -0.0016338124 -0.16641149
0.121927746 -0.0361613 -0.11311763 -0.16139089 0.05064777 -0.077862374 0.034121457 0.02619497
-0.030196777 0.039194357 -0.014347979 0.050890796 -0.016078478 0.08240178 -0.064326495 0.0053168535
-0.06619691 0.041053355 -0.00028054492 0.06389578 0.08395848 -0.069510326 -0.0028799227 0.009789888
-0.027036581 -0.09041394 0.0063075647 0.019392133 0.016068589 -0.01736303 0.028723268 0.0675951
0.06395348 0.03959785 -0.0052536814 -0.123267315 -0.0017671356 -0.11971558 -0.0018405238 0.1910809
-0.06055924 0.03641358 0.061091416 0.08420269 0.007228652 0.044356328 -0.033143234 0.039966267
0.0234221 -0.0407662 -0.019526055 0.076841585 -0.16973393 0.028175993 -0.0034457196 0.05823824
0.10300557 0.05393731 -0.052283145 -0.05410452 -0.04097025 -0.06015342 -0.04381691 0.00015391987
-0.00026573084 0.007578058 -0.063723855 0.0022026359 -0.098445244 -0.03695939 0.04243914 0.045918684
-0.063328356 0.0076570003 0.0061904355 0.0005381735 0.122680254 -0.02492898 -0.07321224 -0.0061071287
-0.06518863 -0.01043072 0.02013933 -0.074133314 0.058558423 -0.047202084 -0.01636287 -0.119658485
0.14219852 0.053283416 0.016500343 -0.08561058 0.05336961 0.018378753 -0.0033232016 -0.040261842
-0.04422903 -0.001397619 -0.006232997 0.0022708355 -0.08598347 -0.09348889 0.056789175 0.1259934
-0.16492034 0.025558898 0.0049146255 -0.1185925 0.07250045 0.032963485 -0.009887903 0.047180057
-0.082271 -0.053203825 0.08123377 0.06384658 -0.163539 -0.0115400925 0.06860675 -0.09711033
-0.10832355 0.14710183 0.02110828 0.085616186 0.007436841 -0.029038213 0.035332385 0.019761153
0.1012736 -0.0051473384 0.033334732 -0.13179979 0.011191302 -0.06970483 -0.03507048 0.09513954
-0.005436643 -0.009547468 0.075288735 -0.02242281 -0.014283312 0.06955264 -0.043042522 -0.03216405
-0.04132987 0.06224946 0.060520764 -0.02026081 -0.04564429 0.025872689 -0.10823048 -0.061171204
-0.112139404 -0.007824691 0.09816352 0.06905652 0.007185968 0.08418905 0.011729864 -0.068515025
0.051041674 0.013579389 0.021558415 -0.10551596 0.059070144 -0.07153533 0.0375582 -0.054597277
0.009079641 -0.08574789 0.00080463855 0.13104871 -0.044703875 -0.014378231 0.0038386404 -0.10220071
-0.040790435 -0.118191056 -0.09840978 0.0108924955 0.06317068 0.090608954 -0.05302785 -0.041703988
0.09646132 0.016596919 -0.07854611 0.06107973 0.0052823243 0.019914974 -0.017041737 -0.031517804
0.02187886 0.017972132 -0.033537984 -0.08867598 0.089066304 -0.008918157 -0.07226925 -0.04737827
0.046860315 -0.026276637 -0.030534968 0.100066386 -0.0019146984 -0.004141894 0.087413 0.038249616
00000000: b29f cb3c 504c bc3d a6f1 ed3a fbd5 15be
00000010: d920 8c3d f18b 3abd 1c1e e2bd 4716 7ebd
00000020: 351f 1dbd 7c70 6e3d a9ca e7bc 34b4 153d
00000030: 16bb 7c3d a65c 4b3b f64b 4abd 79a2 c43c
00000040: dfbf bc3d 86a2 9cbb 7b04 a8bb 4a22 75bd
00000050: 4005 773c a93d 83ba 49c1 8ebc bb02 183c
00000060: 33b1 2c3a 9e48 233c ced0 0fbd c62e 703c
00000070: 8a89 053d d49e 99bb 3f1f 2dbb 56c6 a73d
00000080: e6c8 4d3d 0a6f 0cbd 035c 6fbd de6f c33b
00000090: d74c 5a3d b39f 5abd 0a59 00bd 781f 08bd
000000a0: 1dd2 53bd c5d3 29bd 3620 463d 6ca7 ad3d
000000b0: c045 acbc d95e 10bc a625 d6ba c667 2abe
000000c0: 41b5 f93d df1d 14bd 37aa e7bd a743 25be
000000d0: 0974 4f3d 4f76 9fbd f1c2 0b3d d596 d63c
000000e0: 3b5f f7bc 438a 203d c913 6bbc de72 503d
000000f0: 03b7 83bc 44c2 a83d 9cbd 83bd 0039 ae3b
00000100: 3f92 87bd 9027 283d 1a16 93b9 cadb 823d
00000110: 6cf2 ab3d 6e5b 8ebd 16bd 3cbb c465 203c
00000120: d27b ddbc f22a b9bd b0af ce3b 40dc 9e3c
00000130: 46a2 833c ea3c 8ebc 0f4d eb3c 4d6f 8a3d
00000140: 0bfa 823d 5b31 223d 1327 acbb 9373 fcbd
00000150: 3b9f e7ba 712d f5bd bb3d f1ba b6aa 433e
00000160: f70c 78bd 6826 153d fe3a 7a3d 7672 ac3d
00000170: 54de ec3b fbae 353d 33c1 07bd abb3 233d
00000180: b4df bf3c 75fa 26bd 1bf5 9fbc 1f5f 9d3d
00000190: bbce 2dbe 57d1 e63c 95d1 61bb 398b 6e3d
000001a0: 96f4 d23d 5eed 5c3d da26 56bd b39c 5dbd
000001b0: 6cd0 27bd 6f63 76bd 5c79 33bd 8d65 2139
000001c0: ca51 8bb9 5c51 f83b a781 82bd 195a 103b
000001d0: a99d c9bd bb62 17bd aad4 2d3d 3b15 3c3d
000001e0: 4cb2 81bd 93e7 fa3b 23d9 ca3b 3614 0d3a
000001f0: c93f fb3d dc37 ccbc 4df0 95bd 4f1e c8bb
00000200: 9e81 85bd 9ce5 2abc 3cfb a43c 35d3 97bd
00000210: f5da 6f3d f956 41bd 6d0b 86bc 820f f5bd
00000220: 7d9c 113e b63f 5a3d ba2b 873c 9a54 afbd
00000230: 189a 5a3d 0a8f 963c 12ca 59bb 9ae9 24bd
00000240: 8029 35bd 5030 b7ba 2b3e ccbb 4cd2 143b
00000250: 1a18 b0bd 1a77 bfbd c49b 683d 6a04 013e
00000260: e1e0 28be e560 d13c de0a a13b a0e0 f2bd
00000270: 1e7b 943d b804 073d df00 22bc e03f 413d
00000280: b37d a8bd 41ec 59bd e45d a63d ffc1 823d
00000290: c576 27be a812 3dbc b281 8c3d c8e1 c6bd
000002a0: bdd8 ddbd dda1 163e 46eb ac3c 8a57 af3d
000002b0: beb0 f33b 8ce1 edbc b1b8 103d 24e2 a13c
000002c0: 8868 cf3d 01ab a8bb 008a 083d 86f6 06be
000002d0: b95b 373c 68c1 8ebd 10a6 0fbd 85d8 c23d
000002e0: de25 b2bb fc6c 1cbc fb30 9a3d 0ab0 b7bc
000002f0: 8d04 6abc 9d71 8e3d 5b4d 30bd 73be 03bd
00000300: 8249 29bd 4af9 7e3d 9fe4 773d 00fa a5bc
00000310: 82f5 3abd f6f2 d33c f1a7 ddbd a88e 7abd
00000320: 58a9 e5bd 2233 00bc f509 c93d 816d 8d3d
00000330: 4578 eb3b 4f6b ac3d 9e2e 403c 9b51 8cbd
00000340: 1311 513d 167c 5e3c 469b b03c c018 d8bd
00000350: 89f3 713d 1d81 92bd a1d6 193d 65a1 5fbd
00000360: c6c2 143c 979c afbd 61ee 523a a231 063e
00000370: 691b 37bd ac92 6bbc b391 7b3b 9b4e d1bd
00000380: df13 27bd 270e f2bd 118b c9bd 7076 323c
00000390: a15f 813d 3091 b93d bb33 59bd cdd1 2abd
000003a0: 838d c53d 43f6 873c c8dc a0bd bd2e 7a3d
000003b0: 5917 ad3b ba24 a33c 1d9b 8bbc d018 01bd
000003c0: 4c3b b33c 4b3a 933c 205f 09bd c19b b5bd
000003d0: 6568 b63d 761d 12bc e701 94bd b80f 42bd
000003e0: 9af0 3f3d 1a42 d7bc 7824 fabc 9bef cc3d
000003f0: 9ef6 faba bab8 87bb 9605 b33d a1ab 1c3d

fc1.bias f4 [50]
0.11078095 0.11255995 0.044696834 0.1012206 0.022036433 0.05035842 0.07725248 0.06604463
0.054813657 0.0052596717 0.0059481114 0.059619177 0.12174512 0.050511934 0.0034040073 0.03610801
0.09659269 0.018081745 -0.0090294955 0.044439975 0.006420813 0.032141194 0.034809705 0.05230703
-0.0064910743 0.015534811 0.08250326 0.025289742 0.09376396 0.063550755 0.07837619 0.03950827
0.012890117 0.07331611 -0.028674765 0.071885236 0.055795483 0.089461066 0.06485053 0.06816317
-0.01574638 0.070131116 0.11409228 0.05369877 0.13584243 -0.04180533 0.12854663 0.06552434
0.039267734 0.12971927
00000000: 1fe1 e23d d585 e63d 0714 373d bf4c cf3d
00000010: c085 b43c a144 4e3d 8c36 9e3d 6842 873d
00000020: 4984 603d 5359 ac3b 60e8 c23b 3d33 743d
00000030: 8155 f93d 9ae5 4e3d c415 5f3b fee5 133d
00000040: 63d2 c53d 2b20 943c 73f0 13bc b106 363d
00000050: af65 d23b 7ca6 033d 9f94 0e3d e53f 563d
00000060: 14b3 d4bb b885 7e3c 78f7 a83d 6f2c cf3c
00000070: 5207 c03d e626 823d b283 a03d 6cd3 213d
00000080: 1231 533c c226 963d 57e7 eabc 9138 933d
00000090: ce89 643d 5d37 b73d 5bd0 843d 2299 8b3d
000000a0: 8dfe 80bc e7a0 8f3d 37a9 e93d 3ef3 5b3d
000000b0: 471a 0b3e 113c 2bbd baa1 033e a031 863d
000000c0: 34d7 203d 21d5 043e

fc2.weight f4 [10, 50]
-0.24006203 0.2259063 -0.361644 -0.1773153 -0.050754104 -0.1995983 0.16880874 -0.1291336
-0.15396261 -0.2009189 0.08662406 -0.2240579 0.21152264 0.29749995 0.14430934 -0.20870282
-0.37653488 0.26212326 -0.27974012 -0.18734878 -0.23637177 0.21056956 -0.15215604 -0.09673452
0.21158306 0.24420619 0.15582132 -0.2888063 -0.20955002 -0.1784154 -0.035368446 0.23858938
-0.16101924 0.20697471 -0.040225975 -0.2120223 -0.12481021 0.00923618 0.20482926 -0.18345903
0.13014787 -0.11536879 -0.1409891 -0.14048874 -0.18541916 -0.22408308 0.007789534 0.3507568
0.21043527 0.20875247 0.22032098 0.09183827 -0.19387399 0.19908305 -0.13365273 0.19381417
-0.27376908 -0.05690931 -0.20426431 -0.18899597 -0.2998374 0.20240693 0.1824065 -0.2314787
-0.32482734 0.11197743 0.07210615 -0.27008238 -0.3279055 -0.14003071 0.01438431 -0.12672444
0.20393437 0.2600554 -0.38867542 -0.23850037 -0.044709176 -0.072272554 0.26478326 0.20840555
0.2454624 -0.26320925 -0.27007538 -0.09137798 -0.28239575 0.29184029 -0.2173649 0.2715036
-0.1201448 0.20973 -0.17124993 0.21422374 0.28821626 0.2477618 0.30769944 -0.1935029
0.26389548 -0.088259906 0.15550658 0.15505916 0.25747737 0.18355145 -0.060654625 0.23292173
0.17621389 0.011911274 0.15611678 0.22110604 0.15818611 -0.12848465 -0.03173744 -0.3337218
-0.17215952 -0.0570236 -0.25199977 0.24574836 -0.33630452 -0.029061025 -0.22239493 0.01893953
0.020134874 0.17998156 0.24828346 -0.16687898 -0.027486423 -0.018760411 -0.011519288 -0.20402332
-0.19824786 0.26094383 0.24134655 -0.20521726 -0.12543936 0.20244983 0.15408757 0.044801097
-0.13914569 -0.14865153 0.26397148 -0.1568014 0.12871304 -0.14735685 -0.13197418 0.29632774
-0.11012014 -0.15573262 0.29782835 -0.10604645 -0.24194507 0.15699734 0.22779946 0.12618566
0.23025505 0.24355163 -0.077410884 -0.23808636 0.05913991 0.21286237 -0.049097847 -0.011752738
0.26915222 -0.19198693 -0.24507649 -0.16056821 -0.32018235 -0.048627082 0.106372006 -0.24748668
0.16313379 0.26014695 -0.098931454 -0.2316465 0.19634673 -0.22069511 0.20473018 -0.272106
0.24075168 0.3053195 -0.27987993 -0.04110135 -0.15526572 -0.1917673 -0.13024014 0.21078329
0.16413072 -0.17229716 0.3011886 0.2751916 0.20956014 -0.13163109 0.106290296 -0.20623912
0.2757769 -0.0128446985 -0.05554387 -0.08561877 -0.096413046 -0.13878399 -0.19567348 0.14677289
-0.25771436 -0.11221919 -0.051852062 -0.2177892 0.28024757 0.22842343 -0.27421558 0.20804024
-0.13608323 0.24430391 -0.21559408 0.17654988 -0.16841328 -0.2150721 0.15286617 -0.14210835
0.1220376 -0.19687015 0.1479163 -0.10530181 0.32445112 0.21848565 0.10765126 0.3333535
-0.030418871 -0.17677169 -0.19348311 0.20985915 0.15116042 -0.13896087 0.23864406 -0.12670983
0.28178716 -0.16483927 0.16629028 0.29880348 -0.21468116 -0.14810494 -0.23361814 0.19044113
0.14281449 0.21679448 0.2075151 -0.22631525 -0.04336015 0.29398793 0.052309472 0.08626642
-0.09459114 -0.33948866 -0.2219385 -0.2487609 0.21662737 -0.20818372 -0.03716795 0.14261496
00000000: d2d2 75be fb53 673e 6729 b9be 2492 35be
00000010: 89e3 4fbd 7f63 4cbe 33dc 2c3e 993b 04be
00000020: 60a8 1dbe afbd 4dbe f567 b13d 6f6f 65be
00000030: 6499 583e ea51 983e d4c5 133e 31b6 55be
00000040: 2ec9 c0be 0535 863e 193a 8fbe 5cd8 3fbe
00000050: 710b 72be 8c9f 573e cbce 1bbe bf1c c6bd
00000060: 3ba9 583e 3011 7a3e a08f 1f3e 6bde 93be
00000070: 4894 56be 87b2 36be 81de 10bd c650 743e
00000080: 3ae2 24be 2ef1 533e fec3 24bd 601c 59be
00000090: 7f9c ffbd 5953 173c c3be 513e afdc 3bbe
000000a0: 7c45 053e 7946 ecbd 725f 10be 48dc 0fbe
000000b0: 85de 3dbe 0976 65be 593f ff3b 6596 b33e
000000c0: 587c 573e 35c3 553e d39b 613e b415 bc3d
000000d0: e786 46be 6ddc 4b3e 43dc 08be 3977 463e
000000e0: 762b 8cbe bd19 69bd aa2a 51be 2988 41be
000000f0: 4a84 99be c343 4f3e c5c8 3a3e c108 6dbe
00000100: c54f a6be 6c54 e53d 64ac 933d 3d48 8abe
00000110: 3be3 a7be 3664 0fbe 2bac 6b3c 0dc4 01be
00000120: 2cd4 503e fb25 853e 7700 c7be 7139 74be
00000130: f820 37bd a203 94bd ac91 873e 4468 553e
00000140: 7f5a 7b3e 5dc3 86be 5247 8abe 6124 bbbd
00000150: 2d96 90be 176c 953e e894 5ebe 8502 8b3e
00000160: 7a0e f6bd 76c3 563e 245c 2fbe 785d 5b3e
00000170: 1591 933e 45b5 7d3e c88a 9d3e a025 46be
00000180: 4f1d 873e 9cc1 b4bd 1e3d 1f3e d4c7 1e3e
00000190: 13d4 833e e9f4 3b3e fc70 78bd 0983 6e3e
000001a0: 6a71 343e 8127 433c 14dd 1f3e 9f69 623e
000001b0: 8afb 213e 7b91 03be 1eff 01bd 95dd aabe
000001c0: 964a 30be 9491 69bd 1d06 81be 75a5 7b3e
000001d0: 1b30 acbe 6311 eebc 7fbb 63be 1327 9b3c
000001e0: e4f1 a43c 164d 383e 053e 7e3e 53e2 2abe
000001f0: 352b e1bc 6faf 99bc 65bb 3cbc 7deb 50be
00000200: 7d01 4bbe 6e9a 853e 8d23 773e 7924 52be
00000210: 2d73 00be 024f 4f3e 22c9 1d3e 5b81 373d
00000220: 357c 0ebe 1b38 18be 4527 873e 8c90 20be
00000230: 5acd 033e b7e4 16be 3d24 07be 45b8 973e
00000240: ab86 e1bd 5f78 1fbe f57c 983e e22e d9bd
00000250: 73c0 77be e9c3 203e 4344 693e d036 013e
00000260: fbc7 6b3e 9965 793e 9989 9ebd e9cc 73be
00000270: b13c 723d 98f8 593e d31a 49bd 8e8e 40bc
00000280: 52ce 893e 3998 44be 55f5 7abe fe6b 24be
00000290: f1ee a3be 312d 47bd 91d9 d93d 266d 7dbe
000002a0: 8b0c 273e fb31 853e 939c cabd bd34 6dbe
000002b0: 1e0f 493e e6fd 61be caa4 513e 7a51 8bbe
000002c0: 9c87 763e d652 9c3e 6c4c 8fbe e459 28bd
000002d0: fafd 1ebe a65e 44be ac5d 05be 93d7 573e
000002e0: e211 283e ab6e 30be 6435 9a3e eae5 8c3e
000002f0: ef96 563e 4dca 06be baae d93d 5930 53be
00000300: a132 8d3e 9272 52bc f881 63bd e558 afbd
00000310: 3474 c5bd 641d 0ebe a15e 48be a24b 163e
00000320: 23f3 83be 2dd3 e5bd d462 54bd 2204 5fbe
00000330: 9c7c 8f3e d5e7 693e fc65 8cbe 8008 553e
00000340: 6759 0bbe ce2a 7a3e b2c4 5cbe 7ec9 343e
00000350: 8874 2cbe dc3b 5cbe f388 1c3e da84 11be
00000360: d9ee f93d 5498 49be 5f77 173e 7aa8 d7bd
00000370: 751e a63e b4ba 5f3e 4478 dc3d 4fad aa3e
00000380: ff30 f9bc a303 35be 7020 46be 51e5 563e
00000390: ccc9 1a3e c24b 0ebe 1c5f 743e 39c0 01be
000003a0: 6846 903e a0cb 28be 0048 2a3e c5fc 983e
000003b0: 61d5 5bbe d2a8 17be 9839 6fbe 0003 433e
000003c0: f63d 123e 5fff 5d3e d77e 543e 2fbf 67be
000003d0: 6a9a 31bd 9685 963e 7542 563d 73ac b03d
000003e0: 00b9 c1bd 75d1 adbe d943 63be 2dbb 7ebe
000003f0: 91d3 5d3e 1d2e 55be 6c3d 18bd a809 123e

fc2.bias f4 [10]
0.19039379 0.28204536 0.028577002 -0.10128755 -0.096977554 -0.101085104 -0.33153442 0.04638703
0.00478372 0.006689185
00000000: 97f6 423e 4068 903e 511a ea3c d96f cfbd
00000010: 2b9c c6bd b505 cfbd e1be a9be 5400 3e3d
00000020: c0c0 9c3b f330 db3b
